…
11/29/2020 13:49:24 - INFO - dataset.cifar -   Dataset: UECFOOD100
11/29/2020 13:49:24 - INFO - models.wideresnet -   Model: WideResNet 28x2
11/29/2020 13:49:24 - INFO - __main__ -   Total params: 1.51M
11/29/2020 13:49:26 - INFO - __main__ -   ***** Running training *****
11/29/2020 13:49:26 - INFO - __main__ -     Task = uecfood100@4000
11/29/2020 13:49:26 - INFO - __main__ -     Num Epochs = 256
11/29/2020 13:49:26 - INFO - __main__ -     Batch size per GPU = 64
11/29/2020 13:49:26 - INFO - __main__ -     Total train batch size = 64
11/29/2020 13:49:26 - INFO - __main__ -     Total optimization steps = 262144
WideResNet(
  (conv1): Conv2d(3, 16, kernel_size=(3, 3), stride=(1, 1), padding=(1, 1), bias=False)
  (block1): NetworkBlock(
    (layer): Sequential(
      (0): BasicBlock(
        (bn1): BatchNorm2d(16, eps=1e-05, momentum=0.001, affine=True, track_running_stats=True)
        (relu1): LeakyReLU(negative_slope=0.1, inplace=True)
        (conv1): Conv2d(16, 32, kernel_size=(3, 3), stride=(1, 1), padding=(1, 1), bias=False)
        (bn2): BatchNorm2d(32, eps=1e-05, momentum=0.001, affine=True, track_running_stats=True)
        (relu2): LeakyReLU(negative_slope=0.1, inplace=True)
        (conv2): Conv2d(32, 32, kernel_size=(3, 3), stride=(1, 1), padding=(1, 1), bias=False)
        (convShortcut): Conv2d(16, 32, kernel_size=(1, 1), stride=(1, 1), bias=False)
      )
      (1): BasicBlock(
        (bn1): BatchNorm2d(32, eps=1e-05, momentum=0.001, affine=True, track_running_stats=True)
        (relu1): LeakyReLU(negative_slope=0.1, inplace=True)
        (conv1): Conv2d(32, 32, kernel_size=(3, 3), stride=(1, 1), padding=(1, 1), bias=False)
        (bn2): BatchNorm2d(32, eps=1e-05, momentum=0.001, affine=True, track_running_stats=True)
        (relu2): LeakyReLU(negative_slope=0.1, inplace=True)
        (conv2): Conv2d(32, 32, kernel_size=(3, 3), stride=(1, 1), padding=(1, 1), bias=False)
      )
      (2): BasicBlock(
        (bn1): BatchNorm2d(32, eps=1e-05, momentum=0.001, affine=True, track_running_stats=True)
        (relu1): LeakyReLU(negative_slope=0.1, inplace=True)
        (conv1): Conv2d(32, 32, kernel_size=(3, 3), stride=(1, 1), padding=(1, 1), bias=False)
        (bn2): BatchNorm2d(32, eps=1e-05, momentum=0.001, affine=True, track_running_stats=True)
        (relu2): LeakyReLU(negative_slope=0.1, inplace=True)
        (conv2): Conv2d(32, 32, kernel_size=(3, 3), stride=(1, 1), padding=(1, 1), bias=False)
      )
      (3): BasicBlock(
        (bn1): BatchNorm2d(32, eps=1e-05, momentum=0.001, affine=True, track_running_stats=True)
        (relu1): LeakyReLU(negative_slope=0.1, inplace=True)
        (conv1): Conv2d(32, 32, kernel_size=(3, 3), stride=(1, 1), padding=(1, 1), bias=False)
        (bn2): BatchNorm2d(32, eps=1e-05, momentum=0.001, affine=True, track_running_stats=True)
        (relu2): LeakyReLU(negative_slope=0.1, inplace=True)
        (conv2): Conv2d(32, 32, kernel_size=(3, 3), stride=(1, 1), padding=(1, 1), bias=False)
      )
    )
  )
  (block2): NetworkBlock(
    (layer): Sequential(
      (0): BasicBlock(
        (bn1): BatchNorm2d(32, eps=1e-05, momentum=0.001, affine=True, track_running_stats=True)
        (relu1): LeakyReLU(negative_slope=0.1, inplace=True)
        (conv1): Conv2d(32, 64, kernel_size=(3, 3), stride=(2, 2), padding=(1, 1), bias=False)
        (bn2): BatchNorm2d(64, eps=1e-05, momentum=0.001, affine=True, track_running_stats=True)
        (relu2): LeakyReLU(negative_slope=0.1, inplace=True)
        (conv2): Conv2d(64, 64, kernel_size=(3, 3), stride=(1, 1), padding=(1, 1), bias=False)
        (convShortcut): Conv2d(32, 64, kernel_size=(1, 1), stride=(2, 2), bias=False)
      )
      (1): BasicBlock(
        (bn1): BatchNorm2d(64, eps=1e-05, momentum=0.001, affine=True, track_running_stats=True)
        (relu1): LeakyReLU(negative_slope=0.1, inplace=True)
        (conv1): Conv2d(64, 64, kernel_size=(3, 3), stride=(1, 1), padding=(1, 1), bias=False)
        (bn2): BatchNorm2d(64, eps=1e-05, momentum=0.001, affine=True, track_running_stats=True)
        (relu2): LeakyReLU(negative_slope=0.1, inplace=True)
        (conv2): Conv2d(64, 64, kernel_size=(3, 3), stride=(1, 1), padding=(1, 1), bias=False)
      )
      (2): BasicBlock(
        (bn1): BatchNorm2d(64, eps=1e-05, momentum=0.001, affine=True, track_running_stats=True)
        (relu1): LeakyReLU(negative_slope=0.1, inplace=True)
        (conv1): Conv2d(64, 64, kernel_size=(3, 3), stride=(1, 1), padding=(1, 1), bias=False)
        (bn2): BatchNorm2d(64, eps=1e-05, momentum=0.001, affine=True, track_running_stats=True)
        (relu2): LeakyReLU(negative_slope=0.1, inplace=True)
        (conv2): Conv2d(64, 64, kernel_size=(3, 3), stride=(1, 1), padding=(1, 1), bias=False)
      )
      (3): BasicBlock(
        (bn1): BatchNorm2d(64, eps=1e-05, momentum=0.001, affine=True, track_running_stats=True)
        (relu1): LeakyReLU(negative_slope=0.1, inplace=True)
        (conv1): Conv2d(64, 64, kernel_size=(3, 3), stride=(1, 1), padding=(1, 1), bias=False)
        (bn2): BatchNorm2d(64, eps=1e-05, momentum=0.001, affine=True, track_running_stats=True)
        (relu2): LeakyReLU(negative_slope=0.1, inplace=True)
        (conv2): Conv2d(64, 64, kernel_size=(3, 3), stride=(1, 1), padding=(1, 1), bias=False)
      )
    )
  )
  (block3): NetworkBlock(
    (layer): Sequential(
      (0): BasicBlock(
        (bn1): BatchNorm2d(64, eps=1e-05, momentum=0.001, affine=True, track_running_stats=True)
        (relu1): LeakyReLU(negative_slope=0.1, inplace=True)
        (conv1): Conv2d(64, 128, kernel_size=(3, 3), stride=(2, 2), padding=(1, 1), bias=False)
        (bn2): BatchNorm2d(128, eps=1e-05, momentum=0.001, affine=True, track_running_stats=True)
        (relu2): LeakyReLU(negative_slope=0.1, inplace=True)
        (conv2): Conv2d(128, 128, kernel_size=(3, 3), stride=(1, 1), padding=(1, 1), bias=False)
        (convShortcut): Conv2d(64, 128, kernel_size=(1, 1), stride=(2, 2), bias=False)
      )
      (1): BasicBlock(
        (bn1): BatchNorm2d(128, eps=1e-05, momentum=0.001, affine=True, track_running_stats=True)
        (relu1): LeakyReLU(negative_slope=0.1, inplace=True)
        (conv1): Conv2d(128, 128, kernel_size=(3, 3), stride=(1, 1), padding=(1, 1), bias=False)
        (bn2): BatchNorm2d(128, eps=1e-05, momentum=0.001, affine=True, track_running_stats=True)
        (relu2): LeakyReLU(negative_slope=0.1, inplace=True)
        (conv2): Conv2d(128, 128, kernel_size=(3, 3), stride=(1, 1), padding=(1, 1), bias=False)
      )
      (2): BasicBlock(
        (bn1): BatchNorm2d(128, eps=1e-05, momentum=0.001, affine=True, track_running_stats=True)
        (relu1): LeakyReLU(negative_slope=0.1, inplace=True)
        (conv1): Conv2d(128, 128, kernel_size=(3, 3), stride=(1, 1), padding=(1, 1), bias=False)
        (bn2): BatchNorm2d(128, eps=1e-05, momentum=0.001, affine=True, track_running_stats=True)
        (relu2): LeakyReLU(negative_slope=0.1, inplace=True)
        (conv2): Conv2d(128, 128, kernel_size=(3, 3), stride=(1, 1), padding=(1, 1), bias=False)
      )
      (3): BasicBlock(
        (bn1): BatchNorm2d(128, eps=1e-05, momentum=0.001, affine=True, track_running_stats=True)
        (relu1): LeakyReLU(negative_slope=0.1, inplace=True)
        (conv1): Conv2d(128, 128, kernel_size=(3, 3), stride=(1, 1), padding=(1, 1), bias=False)
        (bn2): BatchNorm2d(128, eps=1e-05, momentum=0.001, affine=True, track_running_stats=True)
        (relu2): LeakyReLU(negative_slope=0.1, inplace=True)
        (conv2): Conv2d(128, 128, kernel_size=(3, 3), stride=(1, 1), padding=(1, 1), bias=False)
      )
    )
  )
  (bn1): BatchNorm2d(128, eps=1e-05, momentum=0.001, affine=True, track_running_stats=True)
  (relu): LeakyReLU(negative_slope=0.1, inplace=True)
  (fc): Linear(in_features=128, out_features=100, bias=True)
  (l1): Linear(in_features=128, out_features=128, bias=True)
  (l2): Linear(in_features=128, out_features=128, bias=True)
)
Train Epoch: 1/ 256. Iter: 1024/1024. LR: 0.0300. Loss: 3.2604. Loss_x: 3.2585. Loss_u: 0.0019. Mask: 0.01. : 100%|██████████████████████████████████████| 1024/1024 [10:48<00:00,  1.58it/s]
Test Iter:   45/  45. Data: 0.030s. Batch: 0.045s. Loss: 4.0124. top1: 11.46. top5: 27.08. : 100%|███████████████████████████████████████████████████████████| 45/45 [00:02<00:00, 21.61it/s]
…
