…
11/26/2020 18:43:58 - INFO - dataset.cifar -   Dataset: food101
11/26/2020 18:43:58 - INFO - models.wideresnet -   Model: WideResNet 28x2
11/26/2020 18:43:58 - INFO - __main__ -   Total params: 1.51M
11/26/2020 18:44:01 - INFO - __main__ -   ***** Running training *****
11/26/2020 18:44:01 - INFO - __main__ -     Task = food101@4000
11/26/2020 18:44:01 - INFO - __main__ -     Num Epochs = 256
11/26/2020 18:44:01 - INFO - __main__ -     Batch size per GPU = 64
11/26/2020 18:44:01 - INFO - __main__ -     Total train batch size = 64
11/26/2020 18:44:01 - INFO - __main__ -     Total optimization steps = 262144
WideResNet(
  (conv1): Conv2d(3, 16, kernel_size=(3, 3), stride=(1, 1), padding=(1, 1), bias=False)
  (block1): NetworkBlock(
    (layer): Sequential(
      (0): BasicBlock(
        (bn1): BatchNorm2d(16, eps=1e-05, momentum=0.001, affine=True, track_running_stats=True)
        (relu1): LeakyReLU(negative_slope=0.1, inplace=True)
        (conv1): Conv2d(16, 32, kernel_size=(3, 3), stride=(1, 1), padding=(1, 1), bias=False)
        (bn2): BatchNorm2d(32, eps=1e-05, momentum=0.001, affine=True, track_running_stats=True)
        (relu2): LeakyReLU(negative_slope=0.1, inplace=True)
        (conv2): Conv2d(32, 32, kernel_size=(3, 3), stride=(1, 1), padding=(1, 1), bias=False)
        (convShortcut): Conv2d(16, 32, kernel_size=(1, 1), stride=(1, 1), bias=False)
      )
      (1): BasicBlock(
        (bn1): BatchNorm2d(32, eps=1e-05, momentum=0.001, affine=True, track_running_stats=True)
        (relu1): LeakyReLU(negative_slope=0.1, inplace=True)
        (conv1): Conv2d(32, 32, kernel_size=(3, 3), stride=(1, 1), padding=(1, 1), bias=False)
        (bn2): BatchNorm2d(32, eps=1e-05, momentum=0.001, affine=True, track_running_stats=True)
        (relu2): LeakyReLU(negative_slope=0.1, inplace=True)
        (conv2): Conv2d(32, 32, kernel_size=(3, 3), stride=(1, 1), padding=(1, 1), bias=False)
      )
      (2): BasicBlock(
        (bn1): BatchNorm2d(32, eps=1e-05, momentum=0.001, affine=True, track_running_stats=True)
        (relu1): LeakyReLU(negative_slope=0.1, inplace=True)
        (conv1): Conv2d(32, 32, kernel_size=(3, 3), stride=(1, 1), padding=(1, 1), bias=False)
        (bn2): BatchNorm2d(32, eps=1e-05, momentum=0.001, affine=True, track_running_stats=True)
        (relu2): LeakyReLU(negative_slope=0.1, inplace=True)
        (conv2): Conv2d(32, 32, kernel_size=(3, 3), stride=(1, 1), padding=(1, 1), bias=False)
      )
      (3): BasicBlock(
        (bn1): BatchNorm2d(32, eps=1e-05, momentum=0.001, affine=True, track_running_stats=True)
        (relu1): LeakyReLU(negative_slope=0.1, inplace=True)
        (conv1): Conv2d(32, 32, kernel_size=(3, 3), stride=(1, 1), padding=(1, 1), bias=False)
        (bn2): BatchNorm2d(32, eps=1e-05, momentum=0.001, affine=True, track_running_stats=True)
        (relu2): LeakyReLU(negative_slope=0.1, inplace=True)
        (conv2): Conv2d(32, 32, kernel_size=(3, 3), stride=(1, 1), padding=(1, 1), bias=False)
      )
    )
  )
  (block2): NetworkBlock(
    (layer): Sequential(
      (0): BasicBlock(
        (bn1): BatchNorm2d(32, eps=1e-05, momentum=0.001, affine=True, track_running_stats=True)
        (relu1): LeakyReLU(negative_slope=0.1, inplace=True)
        (conv1): Conv2d(32, 64, kernel_size=(3, 3), stride=(2, 2), padding=(1, 1), bias=False)
        (bn2): BatchNorm2d(64, eps=1e-05, momentum=0.001, affine=True, track_running_stats=True)
        (relu2): LeakyReLU(negative_slope=0.1, inplace=True)
        (conv2): Conv2d(64, 64, kernel_size=(3, 3), stride=(1, 1), padding=(1, 1), bias=False)
        (convShortcut): Conv2d(32, 64, kernel_size=(1, 1), stride=(2, 2), bias=False)
      )
      (1): BasicBlock(
        (bn1): BatchNorm2d(64, eps=1e-05, momentum=0.001, affine=True, track_running_stats=True)
        (relu1): LeakyReLU(negative_slope=0.1, inplace=True)
        (conv1): Conv2d(64, 64, kernel_size=(3, 3), stride=(1, 1), padding=(1, 1), bias=False)
        (bn2): BatchNorm2d(64, eps=1e-05, momentum=0.001, affine=True, track_running_stats=True)
        (relu2): LeakyReLU(negative_slope=0.1, inplace=True)
        (conv2): Conv2d(64, 64, kernel_size=(3, 3), stride=(1, 1), padding=(1, 1), bias=False)
      )
      (2): BasicBlock(
        (bn1): BatchNorm2d(64, eps=1e-05, momentum=0.001, affine=True, track_running_stats=True)
        (relu1): LeakyReLU(negative_slope=0.1, inplace=True)
        (conv1): Conv2d(64, 64, kernel_size=(3, 3), stride=(1, 1), padding=(1, 1), bias=False)
        (bn2): BatchNorm2d(64, eps=1e-05, momentum=0.001, affine=True, track_running_stats=True)
        (relu2): LeakyReLU(negative_slope=0.1, inplace=True)
        (conv2): Conv2d(64, 64, kernel_size=(3, 3), stride=(1, 1), padding=(1, 1), bias=False)
      )
      (3): BasicBlock(
        (bn1): BatchNorm2d(64, eps=1e-05, momentum=0.001, affine=True, track_running_stats=True)
        (relu1): LeakyReLU(negative_slope=0.1, inplace=True)
        (conv1): Conv2d(64, 64, kernel_size=(3, 3), stride=(1, 1), padding=(1, 1), bias=False)
        (bn2): BatchNorm2d(64, eps=1e-05, momentum=0.001, affine=True, track_running_stats=True)
        (relu2): LeakyReLU(negative_slope=0.1, inplace=True)
        (conv2): Conv2d(64, 64, kernel_size=(3, 3), stride=(1, 1), padding=(1, 1), bias=False)
      )
    )
  )
  (block3): NetworkBlock(
    (layer): Sequential(
      (0): BasicBlock(
        (bn1): BatchNorm2d(64, eps=1e-05, momentum=0.001, affine=True, track_running_stats=True)
        (relu1): LeakyReLU(negative_slope=0.1, inplace=True)
        (conv1): Conv2d(64, 128, kernel_size=(3, 3), stride=(2, 2), padding=(1, 1), bias=False)
        (bn2): BatchNorm2d(128, eps=1e-05, momentum=0.001, affine=True, track_running_stats=True)
        (relu2): LeakyReLU(negative_slope=0.1, inplace=True)
        (conv2): Conv2d(128, 128, kernel_size=(3, 3), stride=(1, 1), padding=(1, 1), bias=False)
        (convShortcut): Conv2d(64, 128, kernel_size=(1, 1), stride=(2, 2), bias=False)
      )
      (1): BasicBlock(
        (bn1): BatchNorm2d(128, eps=1e-05, momentum=0.001, affine=True, track_running_stats=True)
        (relu1): LeakyReLU(negative_slope=0.1, inplace=True)
        (conv1): Conv2d(128, 128, kernel_size=(3, 3), stride=(1, 1), padding=(1, 1), bias=False)
        (bn2): BatchNorm2d(128, eps=1e-05, momentum=0.001, affine=True, track_running_stats=True)
        (relu2): LeakyReLU(negative_slope=0.1, inplace=True)
        (conv2): Conv2d(128, 128, kernel_size=(3, 3), stride=(1, 1), padding=(1, 1), bias=False)
      )
      (2): BasicBlock(
        (bn1): BatchNorm2d(128, eps=1e-05, momentum=0.001, affine=True, track_running_stats=True)
        (relu1): LeakyReLU(negative_slope=0.1, inplace=True)
        (conv1): Conv2d(128, 128, kernel_size=(3, 3), stride=(1, 1), padding=(1, 1), bias=False)
        (bn2): BatchNorm2d(128, eps=1e-05, momentum=0.001, affine=True, track_running_stats=True)
        (relu2): LeakyReLU(negative_slope=0.1, inplace=True)
        (conv2): Conv2d(128, 128, kernel_size=(3, 3), stride=(1, 1), padding=(1, 1), bias=False)
      )
      (3): BasicBlock(
        (bn1): BatchNorm2d(128, eps=1e-05, momentum=0.001, affine=True, track_running_stats=True)
        (relu1): LeakyReLU(negative_slope=0.1, inplace=True)
        (conv1): Conv2d(128, 128, kernel_size=(3, 3), stride=(1, 1), padding=(1, 1), bias=False)
        (bn2): BatchNorm2d(128, eps=1e-05, momentum=0.001, affine=True, track_running_stats=True)
        (relu2): LeakyReLU(negative_slope=0.1, inplace=True)
        (conv2): Conv2d(128, 128, kernel_size=(3, 3), stride=(1, 1), padding=(1, 1), bias=False)
      )
    )
  )
  (bn1): BatchNorm2d(128, eps=1e-05, momentum=0.001, affine=True, track_running_stats=True)
  (relu): LeakyReLU(negative_slope=0.1, inplace=True)
  (fc): Linear(in_features=128, out_features=101, bias=True)
  (l1): Linear(in_features=128, out_features=128, bias=True)
  (l2): Linear(in_features=128, out_features=128, bias=True)
)
Train Epoch: 1/ 256. Iter: 1024/1024. LR: 0.0300. Loss: 4.1277. Loss_x: 4.1276. Loss_u: 0.0000. Mask: 0.00. : 100%|██████████████████████████████████████| 1024/1024 [09:41<00:00,  1.76it/s]
Test Iter:  395/ 395. Data: 0.056s. Batch: 0.072s. Loss: 4.5141. top1: 2.53. top5: 9.90. : 100%|███████████████████████████████████████████████████████████| 395/395 [00:28<00:00, 13.87it/s]
…
