…
11/09/2020 16:09:37 - INFO - dataset.cifar -   Dataset: food101
11/09/2020 16:09:37 - INFO - models.wideresnet -   Model: WideResNet 28x2
11/09/2020 16:09:37 - INFO - __main__ -   Total params: 1.61M
11/09/2020 16:09:38 - INFO - __main__ -   ***** Running training *****
11/09/2020 16:09:38 - INFO - __main__ -     Task = food101@4000
11/09/2020 16:09:38 - INFO - __main__ -     Num Epochs = 256
11/09/2020 16:09:38 - INFO - __main__ -     Batch size per GPU = 48
11/09/2020 16:09:38 - INFO - __main__ -     Total train batch size = 48
11/09/2020 16:09:38 - INFO - __main__ -     Total optimization steps = 262144
WideResNet(
  (conv1): Conv2d(3, 16, kernel_size=(3, 3), stride=(1, 1), padding=(1, 1), bias=False)
  (block1): NetworkBlock(
    (layer): Sequential(
      (0): BasicBlock(
        (bn1): BatchNorm2d(16, eps=1e-05, momentum=0.001, affine=True, track_running_stats=True)
        (relu1): LeakyReLU(negative_slope=0.1, inplace=True)
        (conv1): Conv2d(16, 32, kernel_size=(3, 3), stride=(1, 1), padding=(1, 1), bias=False)
        (bn2): BatchNorm2d(32, eps=1e-05, momentum=0.001, affine=True, track_running_stats=True)
        (relu2): LeakyReLU(negative_slope=0.1, inplace=True)
        (conv2): Conv2d(32, 32, kernel_size=(3, 3), stride=(1, 1), padding=(1, 1), bias=False)
        (convShortcut): Conv2d(16, 32, kernel_size=(1, 1), stride=(1, 1), bias=False)
      )
      (1): BasicBlock(
        (bn1): BatchNorm2d(32, eps=1e-05, momentum=0.001, affine=True, track_running_stats=True)
        (relu1): LeakyReLU(negative_slope=0.1, inplace=True)
        (conv1): Conv2d(32, 32, kernel_size=(3, 3), stride=(1, 1), padding=(1, 1), bias=False)
        (bn2): BatchNorm2d(32, eps=1e-05, momentum=0.001, affine=True, track_running_stats=True)
        (relu2): LeakyReLU(negative_slope=0.1, inplace=True)
        (conv2): Conv2d(32, 32, kernel_size=(3, 3), stride=(1, 1), padding=(1, 1), bias=False)
      )
      (2): BasicBlock(
        (bn1): BatchNorm2d(32, eps=1e-05, momentum=0.001, affine=True, track_running_stats=True)
        (relu1): LeakyReLU(negative_slope=0.1, inplace=True)
        (conv1): Conv2d(32, 32, kernel_size=(3, 3), stride=(1, 1), padding=(1, 1), bias=False)
        (bn2): BatchNorm2d(32, eps=1e-05, momentum=0.001, affine=True, track_running_stats=True)
        (relu2): LeakyReLU(negative_slope=0.1, inplace=True)
        (conv2): Conv2d(32, 32, kernel_size=(3, 3), stride=(1, 1), padding=(1, 1), bias=False)
      )
      (3): BasicBlock(
        (bn1): BatchNorm2d(32, eps=1e-05, momentum=0.001, affine=True, track_running_stats=True)
        (relu1): LeakyReLU(negative_slope=0.1, inplace=True)
        (conv1): Conv2d(32, 32, kernel_size=(3, 3), stride=(1, 1), padding=(1, 1), bias=False)
        (bn2): BatchNorm2d(32, eps=1e-05, momentum=0.001, affine=True, track_running_stats=True)
        (relu2): LeakyReLU(negative_slope=0.1, inplace=True)
        (conv2): Conv2d(32, 32, kernel_size=(3, 3), stride=(1, 1), padding=(1, 1), bias=False)
      )
    )
  )
  (block2): NetworkBlock(
    (layer): Sequential(
      (0): BasicBlock(
        (bn1): BatchNorm2d(32, eps=1e-05, momentum=0.001, affine=True, track_running_stats=True)
        (relu1): LeakyReLU(negative_slope=0.1, inplace=True)
        (conv1): Conv2d(32, 64, kernel_size=(3, 3), stride=(2, 2), padding=(1, 1), bias=False)
        (bn2): BatchNorm2d(64, eps=1e-05, momentum=0.001, affine=True, track_running_stats=True)
        (relu2): LeakyReLU(negative_slope=0.1, inplace=True)
        (conv2): Conv2d(64, 64, kernel_size=(3, 3), stride=(1, 1), padding=(1, 1), bias=False)
        (convShortcut): Conv2d(32, 64, kernel_size=(1, 1), stride=(2, 2), bias=False)
      )
      (1): BasicBlock(
        (bn1): BatchNorm2d(64, eps=1e-05, momentum=0.001, affine=True, track_running_stats=True)
        (relu1): LeakyReLU(negative_slope=0.1, inplace=True)
        (conv1): Conv2d(64, 64, kernel_size=(3, 3), stride=(1, 1), padding=(1, 1), bias=False)
        (bn2): BatchNorm2d(64, eps=1e-05, momentum=0.001, affine=True, track_running_stats=True)
        (relu2): LeakyReLU(negative_slope=0.1, inplace=True)
        (conv2): Conv2d(64, 64, kernel_size=(3, 3), stride=(1, 1), padding=(1, 1), bias=False)
      )
      (2): BasicBlock(
        (bn1): BatchNorm2d(64, eps=1e-05, momentum=0.001, affine=True, track_running_stats=True)
        (relu1): LeakyReLU(negative_slope=0.1, inplace=True)
        (conv1): Conv2d(64, 64, kernel_size=(3, 3), stride=(1, 1), padding=(1, 1), bias=False)
        (bn2): BatchNorm2d(64, eps=1e-05, momentum=0.001, affine=True, track_running_stats=True)
        (relu2): LeakyReLU(negative_slope=0.1, inplace=True)
        (conv2): Conv2d(64, 64, kernel_size=(3, 3), stride=(1, 1), padding=(1, 1), bias=False)
      )
      (3): BasicBlock(
        (bn1): BatchNorm2d(64, eps=1e-05, momentum=0.001, affine=True, track_running_stats=True)
        (relu1): LeakyReLU(negative_slope=0.1, inplace=True)
        (conv1): Conv2d(64, 64, kernel_size=(3, 3), stride=(1, 1), padding=(1, 1), bias=False)
        (bn2): BatchNorm2d(64, eps=1e-05, momentum=0.001, affine=True, track_running_stats=True)
        (relu2): LeakyReLU(negative_slope=0.1, inplace=True)
        (conv2): Conv2d(64, 64, kernel_size=(3, 3), stride=(1, 1), padding=(1, 1), bias=False)
      )
    )
  )
  (block3): NetworkBlock(
    (layer): Sequential(
      (0): BasicBlock(
        (bn1): BatchNorm2d(64, eps=1e-05, momentum=0.001, affine=True, track_running_stats=True)
        (relu1): LeakyReLU(negative_slope=0.1, inplace=True)
        (conv1): Conv2d(64, 128, kernel_size=(3, 3), stride=(2, 2), padding=(1, 1), bias=False)
        (bn2): BatchNorm2d(128, eps=1e-05, momentum=0.001, affine=True, track_running_stats=True)
        (relu2): LeakyReLU(negative_slope=0.1, inplace=True)
        (conv2): Conv2d(128, 128, kernel_size=(3, 3), stride=(1, 1), padding=(1, 1), bias=False)
        (convShortcut): Conv2d(64, 128, kernel_size=(1, 1), stride=(2, 2), bias=False)
      )
      (1): BasicBlock(
        (bn1): BatchNorm2d(128, eps=1e-05, momentum=0.001, affine=True, track_running_stats=True)
        (relu1): LeakyReLU(negative_slope=0.1, inplace=True)
        (conv1): Conv2d(128, 128, kernel_size=(3, 3), stride=(1, 1), padding=(1, 1), bias=False)
        (bn2): BatchNorm2d(128, eps=1e-05, momentum=0.001, affine=True, track_running_stats=True)
        (relu2): LeakyReLU(negative_slope=0.1, inplace=True)
        (conv2): Conv2d(128, 128, kernel_size=(3, 3), stride=(1, 1), padding=(1, 1), bias=False)
      )
      (2): BasicBlock(
        (bn1): BatchNorm2d(128, eps=1e-05, momentum=0.001, affine=True, track_running_stats=True)
        (relu1): LeakyReLU(negative_slope=0.1, inplace=True)
        (conv1): Conv2d(128, 128, kernel_size=(3, 3), stride=(1, 1), padding=(1, 1), bias=False)
        (bn2): BatchNorm2d(128, eps=1e-05, momentum=0.001, affine=True, track_running_stats=True)
        (relu2): LeakyReLU(negative_slope=0.1, inplace=True)
        (conv2): Conv2d(128, 128, kernel_size=(3, 3), stride=(1, 1), padding=(1, 1), bias=False)
      )
      (3): BasicBlock(
        (bn1): BatchNorm2d(128, eps=1e-05, momentum=0.001, affine=True, track_running_stats=True)
        (relu1): LeakyReLU(negative_slope=0.1, inplace=True)
        (conv1): Conv2d(128, 128, kernel_size=(3, 3), stride=(1, 1), padding=(1, 1), bias=False)
        (bn2): BatchNorm2d(128, eps=1e-05, momentum=0.001, affine=True, track_running_stats=True)
        (relu2): LeakyReLU(negative_slope=0.1, inplace=True)
        (conv2): Conv2d(128, 128, kernel_size=(3, 3), stride=(1, 1), padding=(1, 1), bias=False)
      )
    )
  )
  (bn1): BatchNorm2d(128, eps=1e-05, momentum=0.001, affine=True, track_running_stats=True)
  (relu): LeakyReLU(negative_slope=0.1, inplace=True)
  (fc): Linear(in_features=128, out_features=101, bias=True)
  (projetion): MLPHead(
    (net): Sequential(
      (0): Linear(in_features=128, out_features=512, bias=True)
      (1): BatchNorm1d(512, eps=1e-05, momentum=0.1, affine=True, track_running_stats=True)
      (2): ReLU(inplace=True)
      (3): Linear(in_features=512, out_features=128, bias=True)
    )
  )
)
Train Epoch: 1/ 256. Iter:    1/1024. LR: 0.0600. Loss: 4.6234. Loss_x: 4.6234. Loss_u: 0.0000. Mask: 0.00. :   0%|                                         | 1/1024 [00:01<32:58,  1.93s/it]^CTraceback (most recent call last):
  File "train.py", line 517, in <module>
    main()
  File "train.py", line 331, in main
    model, optimizer, ema_model, scheduler, writer)
…
11/09/2020 16:34:24 - INFO - dataset.cifar -   Dataset: food101
11/09/2020 16:34:24 - INFO - models.wideresnet -   Model: WideResNet 28x2
11/09/2020 16:34:24 - INFO - __main__ -   Total params: 1.48M
11/09/2020 16:34:26 - INFO - __main__ -   ***** Running training *****
11/09/2020 16:34:26 - INFO - __main__ -     Task = food101@4000
11/09/2020 16:34:26 - INFO - __main__ -     Num Epochs = 256
11/09/2020 16:34:26 - INFO - __main__ -     Batch size per GPU = 48
11/09/2020 16:34:26 - INFO - __main__ -     Total train batch size = 48
11/09/2020 16:34:26 - INFO - __main__ -     Total optimization steps = 262144
WideResNet(
  (conv1): Conv2d(3, 16, kernel_size=(3, 3), stride=(1, 1), padding=(1, 1), bias=False)
  (block1): NetworkBlock(
    (layer): Sequential(
      (0): BasicBlock(
        (bn1): BatchNorm2d(16, eps=1e-05, momentum=0.001, affine=True, track_running_stats=True)
        (relu1): LeakyReLU(negative_slope=0.1, inplace=True)
        (conv1): Conv2d(16, 32, kernel_size=(3, 3), stride=(1, 1), padding=(1, 1), bias=False)
        (bn2): BatchNorm2d(32, eps=1e-05, momentum=0.001, affine=True, track_running_stats=True)
        (relu2): LeakyReLU(negative_slope=0.1, inplace=True)
        (conv2): Conv2d(32, 32, kernel_size=(3, 3), stride=(1, 1), padding=(1, 1), bias=False)
        (convShortcut): Conv2d(16, 32, kernel_size=(1, 1), stride=(1, 1), bias=False)
      )
      (1): BasicBlock(
        (bn1): BatchNorm2d(32, eps=1e-05, momentum=0.001, affine=True, track_running_stats=True)
        (relu1): LeakyReLU(negative_slope=0.1, inplace=True)
        (conv1): Conv2d(32, 32, kernel_size=(3, 3), stride=(1, 1), padding=(1, 1), bias=False)
        (bn2): BatchNorm2d(32, eps=1e-05, momentum=0.001, affine=True, track_running_stats=True)
        (relu2): LeakyReLU(negative_slope=0.1, inplace=True)
        (conv2): Conv2d(32, 32, kernel_size=(3, 3), stride=(1, 1), padding=(1, 1), bias=False)
      )
      (2): BasicBlock(
        (bn1): BatchNorm2d(32, eps=1e-05, momentum=0.001, affine=True, track_running_stats=True)
        (relu1): LeakyReLU(negative_slope=0.1, inplace=True)
        (conv1): Conv2d(32, 32, kernel_size=(3, 3), stride=(1, 1), padding=(1, 1), bias=False)
        (bn2): BatchNorm2d(32, eps=1e-05, momentum=0.001, affine=True, track_running_stats=True)
        (relu2): LeakyReLU(negative_slope=0.1, inplace=True)
        (conv2): Conv2d(32, 32, kernel_size=(3, 3), stride=(1, 1), padding=(1, 1), bias=False)
      )
      (3): BasicBlock(
        (bn1): BatchNorm2d(32, eps=1e-05, momentum=0.001, affine=True, track_running_stats=True)
        (relu1): LeakyReLU(negative_slope=0.1, inplace=True)
        (conv1): Conv2d(32, 32, kernel_size=(3, 3), stride=(1, 1), padding=(1, 1), bias=False)
        (bn2): BatchNorm2d(32, eps=1e-05, momentum=0.001, affine=True, track_running_stats=True)
        (relu2): LeakyReLU(negative_slope=0.1, inplace=True)
        (conv2): Conv2d(32, 32, kernel_size=(3, 3), stride=(1, 1), padding=(1, 1), bias=False)
      )
    )
  )
  (block2): NetworkBlock(
    (layer): Sequential(
      (0): BasicBlock(
        (bn1): BatchNorm2d(32, eps=1e-05, momentum=0.001, affine=True, track_running_stats=True)
        (relu1): LeakyReLU(negative_slope=0.1, inplace=True)
        (conv1): Conv2d(32, 64, kernel_size=(3, 3), stride=(2, 2), padding=(1, 1), bias=False)
        (bn2): BatchNorm2d(64, eps=1e-05, momentum=0.001, affine=True, track_running_stats=True)
        (relu2): LeakyReLU(negative_slope=0.1, inplace=True)
        (conv2): Conv2d(64, 64, kernel_size=(3, 3), stride=(1, 1), padding=(1, 1), bias=False)
        (convShortcut): Conv2d(32, 64, kernel_size=(1, 1), stride=(2, 2), bias=False)
      )
      (1): BasicBlock(
        (bn1): BatchNorm2d(64, eps=1e-05, momentum=0.001, affine=True, track_running_stats=True)
        (relu1): LeakyReLU(negative_slope=0.1, inplace=True)
        (conv1): Conv2d(64, 64, kernel_size=(3, 3), stride=(1, 1), padding=(1, 1), bias=False)
        (bn2): BatchNorm2d(64, eps=1e-05, momentum=0.001, affine=True, track_running_stats=True)
        (relu2): LeakyReLU(negative_slope=0.1, inplace=True)
        (conv2): Conv2d(64, 64, kernel_size=(3, 3), stride=(1, 1), padding=(1, 1), bias=False)
      )
      (2): BasicBlock(
        (bn1): BatchNorm2d(64, eps=1e-05, momentum=0.001, affine=True, track_running_stats=True)
        (relu1): LeakyReLU(negative_slope=0.1, inplace=True)
        (conv1): Conv2d(64, 64, kernel_size=(3, 3), stride=(1, 1), padding=(1, 1), bias=False)
        (bn2): BatchNorm2d(64, eps=1e-05, momentum=0.001, affine=True, track_running_stats=True)
        (relu2): LeakyReLU(negative_slope=0.1, inplace=True)
        (conv2): Conv2d(64, 64, kernel_size=(3, 3), stride=(1, 1), padding=(1, 1), bias=False)
      )
      (3): BasicBlock(
        (bn1): BatchNorm2d(64, eps=1e-05, momentum=0.001, affine=True, track_running_stats=True)
        (relu1): LeakyReLU(negative_slope=0.1, inplace=True)
        (conv1): Conv2d(64, 64, kernel_size=(3, 3), stride=(1, 1), padding=(1, 1), bias=False)
        (bn2): BatchNorm2d(64, eps=1e-05, momentum=0.001, affine=True, track_running_stats=True)
        (relu2): LeakyReLU(negative_slope=0.1, inplace=True)
        (conv2): Conv2d(64, 64, kernel_size=(3, 3), stride=(1, 1), padding=(1, 1), bias=False)
      )
    )
  )
  (block3): NetworkBlock(
    (layer): Sequential(
      (0): BasicBlock(
        (bn1): BatchNorm2d(64, eps=1e-05, momentum=0.001, affine=True, track_running_stats=True)
        (relu1): LeakyReLU(negative_slope=0.1, inplace=True)
        (conv1): Conv2d(64, 128, kernel_size=(3, 3), stride=(2, 2), padding=(1, 1), bias=False)
        (bn2): BatchNorm2d(128, eps=1e-05, momentum=0.001, affine=True, track_running_stats=True)
        (relu2): LeakyReLU(negative_slope=0.1, inplace=True)
        (conv2): Conv2d(128, 128, kernel_size=(3, 3), stride=(1, 1), padding=(1, 1), bias=False)
        (convShortcut): Conv2d(64, 128, kernel_size=(1, 1), stride=(2, 2), bias=False)
      )
      (1): BasicBlock(
        (bn1): BatchNorm2d(128, eps=1e-05, momentum=0.001, affine=True, track_running_stats=True)
        (relu1): LeakyReLU(negative_slope=0.1, inplace=True)
        (conv1): Conv2d(128, 128, kernel_size=(3, 3), stride=(1, 1), padding=(1, 1), bias=False)
        (bn2): BatchNorm2d(128, eps=1e-05, momentum=0.001, affine=True, track_running_stats=True)
        (relu2): LeakyReLU(negative_slope=0.1, inplace=True)
        (conv2): Conv2d(128, 128, kernel_size=(3, 3), stride=(1, 1), padding=(1, 1), bias=False)
      )
      (2): BasicBlock(
        (bn1): BatchNorm2d(128, eps=1e-05, momentum=0.001, affine=True, track_running_stats=True)
        (relu1): LeakyReLU(negative_slope=0.1, inplace=True)
        (conv1): Conv2d(128, 128, kernel_size=(3, 3), stride=(1, 1), padding=(1, 1), bias=False)
        (bn2): BatchNorm2d(128, eps=1e-05, momentum=0.001, affine=True, track_running_stats=True)
        (relu2): LeakyReLU(negative_slope=0.1, inplace=True)
        (conv2): Conv2d(128, 128, kernel_size=(3, 3), stride=(1, 1), padding=(1, 1), bias=False)
      )
      (3): BasicBlock(
        (bn1): BatchNorm2d(128, eps=1e-05, momentum=0.001, affine=True, track_running_stats=True)
        (relu1): LeakyReLU(negative_slope=0.1, inplace=True)
        (conv1): Conv2d(128, 128, kernel_size=(3, 3), stride=(1, 1), padding=(1, 1), bias=False)
        (bn2): BatchNorm2d(128, eps=1e-05, momentum=0.001, affine=True, track_running_stats=True)
        (relu2): LeakyReLU(negative_slope=0.1, inplace=True)
        (conv2): Conv2d(128, 128, kernel_size=(3, 3), stride=(1, 1), padding=(1, 1), bias=False)
      )
    )
  )
  (bn1): BatchNorm2d(128, eps=1e-05, momentum=0.001, affine=True, track_running_stats=True)
  (relu): LeakyReLU(negative_slope=0.1, inplace=True)
  (fc): Linear(in_features=128, out_features=101, bias=True)
)
  0%|                                                                                                                                                               | 0/1024 [00:00<?, ?it/s]Traceback (most recent call last):
  File "simclr.py", line 538, in <module>
    main()
  File "simclr.py", line 332, in main
    model, optimizer, ema_model, scheduler, writer)
…
