        (bn1): BatchNorm2d(64, eps=1e-05, momentum=0.001, affine=True, track_running_stats=True)
        (relu1): LeakyReLU(negative_slope=0.1, inplace=True)
        (conv1): Conv2d(64, 128, kernel_size=(3, 3), stride=(2, 2), padding=(1, 1), bias=False)
        (bn2): BatchNorm2d(128, eps=1e-05, momentum=0.001, affine=True, track_running_stats=True)
        (relu2): LeakyReLU(negative_slope=0.1, inplace=True)
        (conv2): Conv2d(128, 128, kernel_size=(3, 3), stride=(1, 1), padding=(1, 1), bias=False)
        (convShortcut): Conv2d(64, 128, kernel_size=(1, 1), stride=(2, 2), bias=False)
      )
      (1): BasicBlock(
        (bn1): BatchNorm2d(128, eps=1e-05, momentum=0.001, affine=True, track_running_stats=True)
        (relu1): LeakyReLU(negative_slope=0.1, inplace=True)
        (conv1): Conv2d(128, 128, kernel_size=(3, 3), stride=(1, 1), padding=(1, 1), bias=False)
        (bn2): BatchNorm2d(128, eps=1e-05, momentum=0.001, affine=True, track_running_stats=True)
        (relu2): LeakyReLU(negative_slope=0.1, inplace=True)
        (conv2): Conv2d(128, 128, kernel_size=(3, 3), stride=(1, 1), padding=(1, 1), bias=False)
      )
      (2): BasicBlock(
        (bn1): BatchNorm2d(128, eps=1e-05, momentum=0.001, affine=True, track_running_stats=True)
        (relu1): LeakyReLU(negative_slope=0.1, inplace=True)
        (conv1): Conv2d(128, 128, kernel_size=(3, 3), stride=(1, 1), padding=(1, 1), bias=False)
        (bn2): BatchNorm2d(128, eps=1e-05, momentum=0.001, affine=True, track_running_stats=True)
        (relu2): LeakyReLU(negative_slope=0.1, inplace=True)
        (conv2): Conv2d(128, 128, kernel_size=(3, 3), stride=(1, 1), padding=(1, 1), bias=False)
      )
      (3): BasicBlock(
        (bn1): BatchNorm2d(128, eps=1e-05, momentum=0.001, affine=True, track_running_stats=True)
        (relu1): LeakyReLU(negative_slope=0.1, inplace=True)
        (conv1): Conv2d(128, 128, kernel_size=(3, 3), stride=(1, 1), padding=(1, 1), bias=False)
        (bn2): BatchNorm2d(128, eps=1e-05, momentum=0.001, affine=True, track_running_stats=True)
        (relu2): LeakyReLU(negative_slope=0.1, inplace=True)
        (conv2): Conv2d(128, 128, kernel_size=(3, 3), stride=(1, 1), padding=(1, 1), bias=False)
      )
    )
  )
  (bn1): BatchNorm2d(128, eps=1e-05, momentum=0.001, affine=True, track_running_stats=True)
  (relu): LeakyReLU(negative_slope=0.1, inplace=True)
  (fc): Linear(in_features=128, out_features=101, bias=True)
)
Train Epoch: 1/ 256. Iter: 1024/1024. LR: 0.0600. Loss: 7.6032. Loss_x: 4.3347. Loss_u: 0.0000. Loss_s: 3.2685. Mask: 0.00. : 100%|██████████████████████| 1024/1024 [03:28<00:00,  4.92it/s]
Test Iter:  527/ 527. Data: 0.035s. Batch: 0.056s. Loss: 4.4506. top1: 4.90. top5: 17.24. : 100%|██████████████████████████████████████████████████████████| 527/527 [00:29<00:00, 17.81it/s]
…
